hw4FinalProject/result/model - 副本.pkl (torch, 156277 bytes, 21 tensors)

embedding_spatial f4 [7, 128]
0.0038222969 -0.059870034 -0.11021488 -0.19650237 -0.20762222 0.07855998 -0.089706756 0.18088166
0.17969258 0.029138878 0.16422124 -0.08184245 0.0955749 0.0865594 -0.027339056 0.20847099
-0.0531002 0.09953074 -0.20187847 -0.14839187 -0.13062343 0.20004477 0.046001717 0.043437436
0.010262758 -0.08586344 -0.16641614 -0.1576768 -0.19913125 -0.11621689 0.064395264 0.15549414
-0.05696611 0.1697986 -0.14304301 -0.13438767 -0.19286731 -0.087312244 0.19558574 -0.17340592
0.06795226 0.14168735 -0.024268359 -0.037808016 0.14462043 -0.12374992 -0.0039272606 0.11843918
-0.068973094 0.1371844 -0.012582958 0.15980555 0.04435338 -0.049919173 0.11621477 0.112397
-0.15837254 -0.10856671 0.11943336 -0.18316883 -0.098665334 0.0032955706 -0.18432114 0.1184942
0.06960742 -0.042311102 -0.06837763 -0.04904042 -0.2007553 0.1921841 0.19867669 0.0032016784
0.050000384 -0.17556897 -0.07950659 0.055173382 -0.0029176176 0.019066915 0.016189307 -0.17939907
0.019010141 0.06415768 0.014916182 0.11235677 0.11473577 0.073085144 -0.030578807 0.10309215
-0.21026796 -0.059418887 0.10996194 0.117137834 -0.05039516 -0.021367878 0.18198527 0.0015669018
0.08367033 0.012490094 -0.068528086 0.04066719 -0.16782139 0.103267536 0.037927642 0.047120348
0.13628168 0.07890798 -0.21016873 -0.065567225 -0.14463526 -0.18647164 -0.0006299466 0.05631508
-0.18122928 -0.033084065 0.18128474 0.075593546 0.06914048 -0.15409276 -0.06911537 -0.026355132
0.18157636 -0.16082713 0.20544545 -0.029663801 0.029880673 0.08951603 0.20331268 0.16742651
-0.098220356 -0.017946169 0.03675106 0.011306673 -0.13500771 -0.16089796 0.07373838 -0.08612069
0.0074304193 0.070277855 -0.18654221 0.10363217 -0.17960507 -0.037662506 -0.19270597 -0.07960142
0.16115724 -0.12131158 0.14477699 0.12831019 0.07421698 0.1276864 0.07419394 0.2015978
0.007799268 0.19149707 0.18527447 0.16124265 0.073881015 -0.13256656 0.15992992 -0.019113809
-0.098888785 0.14323802 0.15326084 0.022558212 -0.037926182 0.16985224 0.101134524 0.16560338
-0.1604256 0.088529035 0.012659758 0.07786383 0.1224639 -0.18442003 0.17941467 -0.0073922575
0.078984156 0.05689995 -0.07674044 0.04144521 0.20587258 0.037994012 0.12247737 0.20894058
-0.2003269 -0.027880639 0.09813286 -0.09903668 0.0770884 -0.13297647 0.2037326 0.109034315
-0.17437534 -0.054981843 -0.099982105 -0.0056126416 -0.13174602 0.1073731 -0.18170877 -0.019513518
-0.09960481 -0.16667947 0.15772693 0.14668126 0.20080478 -0.09436787 0.10967861 -0.18110496
0.19042458 -0.14074522 -0.17551465 0.16311719 -0.074707925 -0.18918444 -0.18862215 -0.02670896
0.08524512 -0.13618502 -0.20569138 -0.06127481 0.09433265 -0.20265363 -0.00081953406 0.12436415
0.16431399 0.11888938 -0.17886315 0.19090976 0.03944753 -0.09821204 -0.15301874 0.096778736
0.11483185 -0.039308295 0.18823491 0.046526268 0.09445657 0.096483305 -0.10368978 0.1897779
0.15970503 -0.19893816 -0.047916114 -0.1389222 -0.08285132 -0.12285664 0.035462335 0.08836599
-0.0882783 -0.16679311 0.01807864 -0.15764569 -0.17563418 -0.027237326 -0.16035423 0.05637966
00000000: 807f 7a3b 483a 75bd 57b8 e1bd eb37 49be
00000010: eb9a 54be 0ee4 a03d 2db8 b7bd 0b39 393e
00000020: 5501 383e a8b4 ee3c 9d29 283e 049d a7bd
00000030: c6bc c33d 0e46 b13d 28f6 dfbc 6b79 553e
00000040: 987f 59bd c6d6 cb3d 3bb9 4ebe 0af4 17be
00000050: 26c2 05be 89d8 4c3e 4c6c 3c3d 74eb 313d
00000060: 2025 283c 2cd9 afbd fe68 2abe 0776 21be
00000070: 10e9 4bbe 1f03 eebd aae1 833d db39 1f3e
00000080: 4c55 69bd afdf 2d3e de79 12be ec9c 09be
00000090: 027f 45be c3d0 b2bd a147 483e 5291 31be
000000a0: 8e2a 8b3d 7d16 113e 70ce c6bc 94dc 1abd
000000b0: 6117 143e 9970 fdbd 40b0 80bb 3e90 f23d
000000c0: c441 8dbd 117a 0c3e c028 4ebc 11a4 233e
000000d0: e4ab 353d 0c78 4cbd 0202 ee3d 6630 e63d
000000e0: 692c 22be 3958 debd 7a99 f43d 9c90 3bbe
000000f0: 0d11 cabd 80fa 573b aebe 3cbe 16ad f23d
00000100: 568e 8e3d 684e 2dbd 9209 8cbd 9cde 48bd
00000110: cc92 4dbe e9cb 443e e771 4b3e 40d3 513b
00000120: 34cd 4c3d 5ac8 33be 5ad4 a2bd 7cfd 613d
00000130: 8035 3fbb 3832 9c3c 709f 843c 64b4 37be
00000140: 28bb 9b3c 1a65 833d 0063 743c 4e1b e63d
00000150: 96fa ea3d aaad 953d 6880 fabc fa21 d33d
00000160: 7c50 57be 3861 73bd ba33 e13d f6e5 ef3d
00000170: 286b 4ebd b00b afbc 595a 3a3e 8060 cd3a
00000180: 5a5b ab3d 40a3 4c3c 7458 8cbd a492 263d
00000190: 5fd9 2bbe ee7d d33d 045a 1b3d 4401 413d
000001a0: 6d8d 0b3e 829a a13d 7936 57be 1c48 86bd
000001b0: 441b 14be 6cf2 3ebe 0023 25ba a4aa 663d
000001c0: 2b94 39be 2883 07bd b5a2 393e cad0 9a3d
000001d0: 8699 8d3d 7eca 1dbe 5c8c 8dbd b8e6 d7bc
000001e0: 27ef 393e deaf 24be 4b60 523e 8001 f3bc
000001f0: 50c8 f43c 2e54 b73d 3331 503e db71 2b3e
00000200: c127 c9bd d803 93bc 4888 163d a03f 393c
00000210: 763f 0abe 6fc2 24be 2604 973d 0b60 b0bd
00000220: e07a f33b d6ed 8f3d ec04 3fbe 1a3d d43d
00000230: 64ea 37be 0044 1abd b754 45be 1206 a3bd
00000240: 6706 253e 3572 f8bd 6b40 143e bf63 033e
00000250: 12ff 973d 39c0 023e fef2 973d a76f 4e3e
00000260: 0091 ff3b cf17 443e 97b8 3d3e cb1c 253e
00000270: ee4e 973d 87bf 07be abc4 233e 9094 9cbc
00000280: 3486 cabd fdac 123e 69f0 1c3e 00cc b83c
00000290: 7c58 1bbd bfed 2d3e 9e1f cf3d ef93 293e
000002a0: 9c46 24be b64e b53d e06a 4f3c 1277 9f3d
000002b0: 5ace fa3d 9bd8 3cbe 7bb8 373e c03a f2bb
000002c0: 72c2 a13d ec0f 693d 182a 9dbd 74c2 293d
000002d0: 43d0 523e 9c9f 1b3d 6ad5 fa3d 85f4 553e
000002e0: 7f22 4dbe f065 e4bc e2f9 c83d bed3 cabd
000002f0: 86e0 9d3d fc2a 08be 479f 503e 624d df3d
00000300: 738f 32be a434 61bd 6bc3 ccbd 40ea b7bb
00000310: 6ee8 06be 6ee6 db3d dd11 3abe d0da 9fbc
00000320: 9bfd cbbd 06ae 2abe 2b83 213e 9d33 163e
00000330: c59f 4d3e f143 c1bd 2e9f e03d 9473 39be
00000340: a9fe 423e 841f 10be 1dba 33be 3108 273e
00000350: 7800 99bd 91b9 41be 2a26 41be c0cc dabc
00000360: fe94 ae3d 1674 0bbe c3a0 52be 4cfb 7abd
00000370: 7a31 c13d 6f84 4fbe 00d6 56ba a2b2 fe3d
00000380: ed41 283e 467c f33d e727 37be d97d 433e
00000390: bc93 213d 6523 c9bd f2b0 1cbe ee33 c63d
000003a0: f62c eb3d bc01 21bd a7c0 403e 5492 3e3d
000003b0: 7272 c13d 0a99 c53d 4f5b d4bd 2355 423e
000003c0: b789 233e 72b6 4bbe b043 44bd 9f41 0ebe
000003d0: f4ad a9bd 439c fbbd f440 113d 3af9 b43d
000003e0: 41cb b4bd d0cb 2abe a819 943c df6d 21be
000003f0: 72d9 33be d020 dfbc e633 24be 5cee 663d

weight f4 [32, 4]
-0.18681806 0.4104469 -0.22467309 0.14598215 -0.32527983 0.09900527 -0.04045705 0.391082
-0.08484937 0.42779142 -0.25038224 -0.41575846 -0.39339685 0.19233608 0.35116854 0.042255525
0.1546851 -0.0903792 0.10834775 -0.04270455 0.004664655 0.08450014 0.0389787 -0.15584096
-0.36505064 -0.23210494 0.28412306 0.09650253 -0.19062963 -0.045697935 0.16750206 0.33608148
0.34982243 0.103151985 0.12974882 0.04825549 -0.06354103 -0.21844889 -0.28888473 0.28566036
-0.40130895 0.13315532 0.09053129 -0.22347613 0.07087393 -0.27710795 -0.020431306 0.43740955
0.20272282 0.078456804 0.29435205 0.33486333 -0.2042144 -0.16251928 -0.21397212 -0.11451768
0.13404177 0.025192909 -0.043054465 -0.23626801 -0.35250503 0.20567939 0.368055 -0.02903297
-0.30474386 0.23758961 -0.054964796 -0.2110765 -0.19231123 -0.057201784 0.4067052 0.042205337
0.06693553 -0.057878606 0.38879907 -0.20692536 -0.1467053 -0.19908528 -0.23722875 -0.11990517
-0.20784622 0.24182674 0.17892101 -0.40440404 0.24466121 0.103671096 -0.09290706 0.09722786
0.28751636 -0.079002716 -0.11878098 0.4054947 -0.39674398 -0.15957914 0.18530263 -0.06544958
0.17968401 -0.22163895 -0.14720657 0.1491204 -0.25770062 0.17825887 0.32858372 0.4030004
0.1644686 0.37138468 0.34260458 0.49144363 0.19580443 0.2920024 0.40821928 -0.21353771
-0.016079888 -0.32380673 0.19098724 -0.1116321 -0.36475945 0.25656494 -0.06531733 0.07591536
-0.11757938 0.3049734 -0.42306745 0.23940885 -0.03782708 -0.3171779 -0.22093855 0.004884301
00000000: 3c4d 3fbe 1926 d23e b410 66be 587c 153e
00000010: 148b a6be 46c3 ca3d 4bb6 25bd e63b c83e
00000020: 82c5 adbd 7a07 db3e 1a32 80be 4bde d4be
00000030: 506b c9be c0f3 443e 5dcc b33e 2114 2d3d
00000040: c565 1e3e bb18 b9bd 6de5 dd3d f7ea 2ebd
00000050: f6d9 983b 690e ad3d 21a8 1f3d c694 1fbe
00000060: ebe7 babe ebac 6dbe 9478 913e 1ea3 c53d
00000070: 6a34 43be c22d 3bbd a985 2b3e df12 ac3e
00000080: ed1b b33e 5941 d33d e0dc 043e 8ca7 453d
00000090: cd21 82bd 11b1 5fbe b3e8 93be 1342 923e
000000a0: 5e78 cdbe de59 083e 7868 b93d edd6 64be
000000b0: 5a26 913d 18e1 8dbe 8e5f a7bc 25f4 df3e
000000c0: 9296 4f3e f6ad a03d 50b5 963e 3573 ab3e
000000d0: 941d 51be 746b 26be 821b 5bbe 3f88 eabd
000000e0: 3f42 093e 5c61 ce3c e159 30bd 3ef0 71be
000000f0: 8a7b b4be 9e9d 523e b471 bc3e 8dd6 edbc
00000100: 6307 9cbe b14a 733e c422 61bd 7024 58be
00000110: 3ced 44be 6b4c 6abd aa3b d03e 81df 2c3d
00000120: 7f15 893d 1e12 6dbd ac10 c73e 3ee4 53be
00000130: ea39 16be 03dd 4bbe 18ec 72be d790 f5bd
00000140: a4d5 54be 6ea1 773e 1237 373e 0c0e cfbe
00000150: 7888 7a3e 8351 d43d 0f46 bebd 661f c73d
00000160: 5835 933e 2dcc a1bd 7143 f3bd 009d cf3e
00000170: 0722 cbbe b768 23be f9bf 3d3e 6e0a 86bd
00000180: 16ff 373e 52f5 62be 52bd 16be 05b3 183e
00000190: 56f1 83be 7e89 363e 203c a83e 1256 ce3e
000001a0: 756a 283e 2226 be3e de69 af3e 809e fb3e
000001b0: f580 483e 5781 953e 1e02 d13e a1a9 5abe
000001c0: f8b9 83bc ffc9 a5be 2992 433e 5f9f e4bd
000001d0: c0c1 babe 7b5c 833e 18c5 85bd 8379 9b3d
000001e0: 75cd f0bd 7925 9c3e 4c9c d8be 9827 753e
000001f0: 91f0 1abd 2465 a2be b73d 62be 7d0c a03b

bias f4 [32]
-0.2536906 -0.068316326 -0.12301402 0.25810423 0.24348469 0.3050809 -0.14197922 -0.2075571
-0.27091542 -0.39105695 -0.25747678 -0.31307247 -0.044349942 -0.15302907 -0.32710066 0.17690955
-0.09407161 0.18858446 -0.060865067 0.0074134115 0.24624608 0.10515054 -0.14106646 -0.08993965
0.047760285 -0.475657 -0.434493 -0.42916504 0.07578683 0.22638237 0.119017094 -0.40635785
00000000: bce3 81be 6ee9 8bbd c6ee fbbd 3d26 843e
00000010: 0d54 793e 9033 9c3e 0063 11be d989 54be
00000020: 6db5 8abe 9e38 c8be ffd3 83be 094b a0be
00000030: 49a8 35bd a7b3 1cbe bd79 a7be c727 353e
00000040: 9ea8 c0bd 491c 413e a64d 79bd 34ec f23b
00000050: ef27 7c3e 2b59 d73d ba73 10be 4732 b8bd
00000060: 4aa0 433d 5089 f3be de75 debe 85bb dbbe
00000070: 2036 9b3d c8d0 673e 3cbf f33d 230e d0be

weight_ih_l0 f4 [128, 32]
-0.0943087 -0.13582775 0.014494507 -0.09526247 -0.090513356 0.16381243 0.12454086 0.00572216
0.03360133 -0.09790584 0.050246462 -0.15178812 0.08216305 -0.09375162 0.067455776 -0.026902134
-0.13260117 0.15111984 0.13960588 -0.12236506 -0.14946763 -0.0936464 -0.15867482 0.054471493
0.11439842 0.016615493 -0.03198315 0.036869768 0.13359083 0.10141752 0.005803482 0.036937878
-0.12941399 -0.008695418 -0.053392865 0.13119608 0.14462504 -0.057014342 0.10181529 0.12113479
-0.009031258 0.15020168 0.022343796 0.09065022 0.05031299 -0.0073001385 -0.14965439 0.0374165
-0.09559134 0.04826486 0.014723126 -0.10086734 0.12801494 0.09121201 -0.17402281 -0.07731392
0.09538648 0.16873197 0.1081656 -0.09219435 -0.1164119 0.05416268 0.12728596 0.14667916
-0.00059814047 0.04083846 0.007825793 0.14775053 -0.14732267 0.15806825 -0.007579556 -0.15078694
-0.12914197 -0.16408566 0.03644146 -0.14140783 -0.05445449 -0.053334225 0.037259508 0.15155731
-0.114413194 0.15738615 -0.12314264 -0.0069296546 0.07156151 -0.13949206 -0.0009816434 0.07115948
-0.11874131 0.043364353 -0.1466832 0.095116235 0.1695106 -0.024864526 0.12603363 0.15352179
-0.1400371 0.08385671 -0.101022445 0.08930256 0.049528785 -0.112479195 -0.060058225 -0.13105418
0.059786934 -0.081286386 -0.045627818 0.014323799 -0.14687653 0.121756814 0.16129027 -0.13424805
0.1469189 -0.07281124 -0.014060799 -0.07490213 0.09586846 0.15206021 0.084810264 -0.03822148
0.054152243 0.18844408 -0.06314443 0.067484386 0.16617723 -0.1425383 -0.10767188 -0.15614086
-0.13810384 -0.103714645 0.07761802 -0.054866232 0.18893754 0.08446818 -0.114404544 -0.0456354
0.033682253 -0.14494134 0.107333265 0.02106574 -0.15593792 0.10917128 -0.24673945 0.13202995
0.077296235 -0.12482919 0.043605354 -0.09141773 0.0085224975 -0.0627588 -0.19819438 0.09876736
-0.14910015 -0.12082932 0.09203118 0.113844894 0.07524855 0.14905292 -0.05790081 -0.15969095
-0.14035638 -0.03379631 -0.16507612 -0.055409238 0.14164595 -0.016527152 0.11786508 -0.20185876
0.17582446 0.12212965 0.0024116752 -0.13539994 -0.043374233 0.0012280864 0.13642895 -0.21898735
0.10544848 -0.13344856 0.17602107 -0.115184054 0.06839264 -0.1380227 0.061373226 -0.14098068
-0.0029263317 0.010262627 -0.12397436 -0.020309998 -0.06643947 -0.17073773 0.04121581 0.15642744
0.1448381 0.019649096 0.14781691 -0.052661672 0.09343365 -0.1138428 -0.029789133 -0.01756758
0.03564611 0.02437678 -0.20808169 -0.008309386 -0.12074825 0.11906738 0.07069736 0.14677021
-0.19502084 -0.06375797 0.003336938 0.08920914 -0.026090307 0.19433758 0.057541832 -0.19850741
0.035326183 -0.015790015 0.04548602 0.09883402 0.14868845 -0.14850035 -0.16751955 0.13247246
-0.07405084 -0.025680652 0.044696942 -0.06345629 0.14904778 0.11127734 -0.15275633 0.15618983
-0.041375455 -0.13803196 -0.1742601 -0.112950236 -0.15547171 0.043580465 -0.038806833 0.005349532
-0.06838479 0.07827108 0.120782666 0.09677311 0.101202644 -0.036049984 -0.051128507 -0.101837136
-0.13212349 0.020260023 0.013573578 0.11756926 0.035540767 -0.11336334 0.06713755 -0.024247536
00000000: eb24 c1bd 6e16 0bbe 5e7a 6d3c f818 c3bd
00000010: 115f b9bd 72be 273e 470f ff3d f580 bb3b
00000020: 8ca1 093d db82 c8bd 3ccf 4d3d 586e 1bbe
00000030: 1a45 a83d d900 c0bd 4126 8a3d dd61 dcbc
00000040: 9ac8 07be 29bf 1a3e d8f4 0e3e 889a fabd
00000050: 0b0e 19be afc9 bfbd a77b 22be 801d 5f3d
00000060: b849 ea3d 371d 883c c300 03bd c104 173d
00000070: 09cc 083e fdb3 cf3d 232b be3b 2c4c 173d
00000080: 1a85 04be 3a77 0ebc 7ab2 5abd 4458 063e
00000090: 9618 143e df87 69bd 8984 d03d 8415 f83d
000000a0: d7f7 13bc 78ce 193e 560a b73c d3a6 b93d
000000b0: fe14 4e3d 0036 efbb 003f 19be 0b42 193d
000000c0: 64c5 c3bd 60b1 453d 4439 713c 8993 cebd
000000d0: 5916 033e 5dcd ba3d 0933 32be c356 9ebd
000000e0: fd59 c33d 13c8 2c3e ed85 dd3d 64d0 bcbd
000000f0: 5d69 eebd b0d9 5d3d 4057 023e 1033 163e
00000100: 87cc 1cba 3b46 273d c137 003c ea4b 173e
00000110: c1db 16be a5dc 213e ed5d f8bb e467 1abe
00000120: cb3d 04be 1206 28be a443 153d 37cd 10be
00000130: ac0b 5fbd fd74 5abd 6d9d 183d d731 1b3e
00000140: 7751 eabd d629 213e 3532 fcbd 2812 e3bb
00000150: d78e 923d 02d7 0ebe 7daa 80ba 10bc 913d
00000160: a52e f3bd d29e 313d 1f34 16be 4dcc c23d
00000170: 3094 2d3e b1b0 cbbc f60e 013e d134 1d3e
00000180: e365 0fbe 11bd ab3d dbe4 cebd 43e4 b63d
00000190: b2de 4a3d 7e5b e6bd 9dff 75bd 1133 06be
000001a0: 25e3 743d 7a79 a6bd 3ce4 3abd 5eae 6a3c
000001b0: cd66 16be a35b f93d 4729 253e 5278 09be
000001c0: e871 163e 0f1e 95bd 445f 66bc 4a66 99bd
000001d0: af56 c43d acb5 1b3e 01b1 ad3d 208e 1cbd
000001e0: bece 5d3d 7cf7 403e de51 81bd 4135 8a3d
000001f0: 5d2a 2a3e 8ff5 11be 1383 dcbd 64e3 1fbe
00000200: 186b 0dbe 5868 d4bd 32f6 9e3d 6abb 60bd
00000210: d878 413e a7fd ac3d ee4c eabd 2fec 3abd
00000220: 67f6 093d 816b 14be 8bd1 db3d 0f92 ac3c
00000230: 31ae 1fbe 3195 df3d 44a9 7cbe dc32 073e
00000240: 7d4d 9e3d 72a6 ffbd 879b 323d 3839 bbbd
00000250: f2a1 0b3c b087 80bd 78f3 4abe 8b46 ca3d
00000260: b6ad 18be 5d75 f7bd d87a bc3d 8327 e93d
00000270: e91b 9a3d 54a1 183e 6629 6dbd 0686 23be
00000280: 95b9 0fbe 006e 0abd b709 29be ccf4 62bd
00000290: a30b 113e f363 87bc 3f63 f13d 10b4 4ebe
000002a0: 540b 343e 1c1f fa3d 320d 1e3b 48a6 0abe
000002b0: 2ea9 31bd bef7 a03a 08b4 0b3e 383e 60be
000002c0: 5ff5 d73d bda6 08be de3e 343e 9ee5 ebbd
000002d0: 7111 8c3d d355 0dbe 7e62 7b3d 3d5d 10be
000002e0: b3c7 3fbb 9424 283c 45e6 fdbd 2761 a6bc
000002f0: 6b11 88bd dfd5 2ebe e9d1 283d 842e 203e
00000300: 7050 143e 24f7 a03c 515d 173e c4b3 57bd
00000310: 245a bf3d 6a26 e9bd 5708 f4bc e3e9 8fbc
00000320: a801 123d d0b1 c73c 5e13 55be 1724 08bc
00000330: dc4a f7bd 99d9 f33d c7c9 903d ee4a 163e
00000340: 8bb3 47be 8a93 82bd 88b0 5a3b 48b3 b63d
00000350: 57bb d5bc 6e00 473e fcb0 6b3d 8745 4bbe
00000360: 30b2 103d 105a 81bc 8d4f 3a3d 7e69 ca3d
00000370: c941 183e 7a10 18be 3f8a 2bbe dca6 073e
00000380: f8a7 97bd 3b60 d2bc 2414 373d 5ff5 81bd
00000390: fb9f 183e 60e5 e33d 286c 1cbe 3af0 1f3e
000003a0: 4f79 29bd 4058 0dbe 3d71 32be 7452 e7bd
000003b0: fa33 1fbe 6e81 323d eaf3 1ebd 204b af3b
000003c0: 530d 8cbd 974c a03d e75c f73d fb30 c63d
000003d0: 5543 cf3d 26a9 13bd 206c 51bd fd8f d0bd
000003e0: 614b 07be 59f8 a53c b663 5e3c 27c8 f03d
000003f0: 3293 113d 0a2b e8bd 697f 893d c5a2 c6bc

weight_hh_l0 f4 [128, 32]
-0.08713824 0.16702664 -0.06649497 -0.1463474 0.026585039 -0.062718436 -0.02426658 0.12554975
0.14005259 0.1266637 -0.1280636 0.02370759 0.16646859 -0.003000599 0.07482701 -0.10145988
0.08740875 -0.01616867 0.0733496 -0.16648373 -0.042091403 -0.15737872 -0.049460907 -0.054724686
0.052368674 0.056956027 -0.10279832 0.070361495 -0.11168805 -0.1861006 -0.07203966 -0.122607544
-0.10168774 -0.16186763 -0.17712864 -0.018940054 -0.06799346 -0.11061586 -0.106941715 -0.09031671
-0.059422933 0.14948164 0.16317698 0.01601717 -0.015053584 0.107786655 0.054919723 -0.1384888
-0.16540892 0.14530975 0.107283555 0.12797755 -0.050561596 -0.03829683 0.0073259673 -0.11839821
-0.06542975 -0.024209965 0.120738134 0.049071528 0.0053989976 -0.023785654 0.051975254 -0.1600507
0.04950578 -0.014984403 -0.14707716 0.103143394 -0.13851342 0.12941432 -0.13868225 -0.065845005
-0.09965636 0.047996916 0.06869141 0.0051001078 0.09711294 -0.2705808 -0.07475267 -0.042273853
-0.08805919 0.051712558 -0.14174718 -0.21787134 0.16763367 0.06021867 0.1283772 -0.01116658
-0.03530477 -0.13336305 0.011757229 -0.11031924 0.11037861 -0.0323452 -0.06444072 0.04566575
-0.026934106 0.052400935 -0.09897837 0.18304783 0.09964802 0.08607713 0.00807654 0.012411826
0.0022235902 -0.0777603 0.12469184 0.046377297 -0.020619126 -0.11380452 -0.003347316 0.20828038
0.14474723 0.038966592 -0.11255525 0.18023185 -0.1973765 -0.12460218 -0.17350718 0.15262647
0.042849634 0.0010534156 0.033581488 0.10585938 -0.10208971 0.12868004 -0.115542375 0.13543952
-0.020162184 -0.14722219 0.013332883 -0.0088857 -0.09420611 0.0105140535 0.051499903 -0.13259043
0.13610682 -0.019136125 0.1856189 0.08175299 -0.16133007 0.04326987 0.11630676 -0.075042784
0.03016179 -0.015230853 -0.10184287 0.054028243 -0.14496876 -0.09888307 0.11479115 -0.026396807
0.10897571 -0.01287847 0.012944829 0.15360819 -0.07971052 0.014729319 0.058458563 -0.07440087
-0.19241497 -0.11828079 0.11651406 -0.06637773 -0.08200624 0.1867547 -0.1996598 0.089419216
-0.15195547 0.066985 -0.16146992 -0.04787997 0.1084851 -0.13727003 0.08180682 0.11046838
-0.031654898 -0.12866755 -0.1149721 -0.12230122 -0.1163327 -0.03434981 -0.06209849 -0.057942756
-0.13847966 -0.016428333 -0.046182442 -0.13084191 -0.057748955 0.16327845 -0.08078144 0.05054973
0.1013376 -0.039684765 -0.0931667 0.07438283 -0.051150255 -0.092632644 -0.14351548 -0.17336869
0.044645336 0.017705336 -0.17311239 0.043337375 0.0423657 -0.16373919 -0.17018206 -0.019708538
-0.09685723 -0.10778494 0.084905185 -0.13995248 0.13767964 0.13823126 0.12458777 0.11480383
-0.05861323 -0.084293425 0.03944779 -0.15299673 -0.09020763 -0.016562643 0.13758022 0.17105341
-0.11384289 -0.10763386 -0.001993104 0.1522527 0.13893396 -0.18255632 -0.01586959 -0.1215552
0.10424416 -0.14748645 0.03113141 0.04844888 0.11068783 0.020142019 0.02106476 -0.020441629
-0.14672653 0.11491329 0.13350405 0.11522422 -0.07784546 -0.120981745 0.032045405 0.082137465
0.11266692 -0.104695536 0.0633555 0.13779964 -0.0890398 0.15848167 0.053311363 0.15921806
00000000: 8975 b2bd 0809 2b3e 842e 88bd 18dc 15be
00000010: dec8 d93c 8672 80bd b5ca c6bc 1d90 003e
00000020: f269 0f3e 21b4 013e 1b23 03be 6b36 c23c
00000030: be76 2a3e b3a5 44bb e73e 993d 33ca cfbd
00000040: 5c03 b33d 2974 84bc 5138 963d b67a 2abe
00000050: 0968 2cbd e327 21be 8597 4abd fe26 60bd
00000060: 8980 563d b94a 693d ed87 d2bd b019 903d
00000070: b4bc e4bd 2891 3ebe 8789 93bd aa19 fbbd
00000080: a941 d0bd a1c0 25be 3661 35be 2c28 9bbc
00000090: 2840 8bbd 918a e2bd 4204 dbbd f8f7 b8bd
000000a0: 7665 73bd b711 193e de17 273e 7136 833c
000000b0: 4fa3 76bc 40bf dc3d 81f3 603d 02d0 0dbe
000000c0: f560 29be 14cc 143e 7bb7 db3d 8c0c 033e
000000d0: ad19 4fbd 23dd 1cbd ab0e f03b c37a f2bd
000000e0: 0800 86bd fa53 c6bc 8e45 f73d 3aff 483d
000000f0: 13ea b03b 22da c2bc 01e4 543d 55e4 23be
00000100: 93c6 4a3d 2481 75bc 659b 16be d83c d33d
00000110: 76d6 0dbe 3085 043e b802 0ebe bfd9 86bd
00000120: a218 ccbd 6a98 443d 15ae 8c3d ce1e a73b
00000130: 26e3 c63d 9189 8abe ee17 99bd 5927 2dbd
00000140: 6058 b4bd 8cd0 533d 2c26 11be aa19 5fbe
00000150: 29a8 2b3e daa7 763d 5075 033e 08f4 36bc
00000160: bc9b 10bd 5390 08be 65a1 403c 0eef e1bd
00000170: 2e0e e23d 677c 04bd 7ff9 83bd 020c 3b3d
00000180: eaa4 dcbc 5da2 563d 2cb5 cabd e470 3b3e
00000190: 4314 cc3d 3549 b03d 7753 043c f95a 4b3c
000001a0: a7b9 113b cb40 9fbd 6f5e ff3d 1ff6 3d3d
000001b0: 71e9 a8bc 5812 e9bd a55e 5bbb 7447 553e
000001c0: 9e38 143e 6f9b 1f3d 5e83 e6bd b38e 383e
000001d0: 111d 4abe 6e2f ffbd deab 31be 1d4a 1c3e
000001e0: 1983 2f3d c312 8a3a be8c 093d cdcc d83d
000001f0: 6914 d1bd b3c4 033e 7ba1 ecbd a8b0 0a3e
00000200: 2a2b a5bc 6ac1 16be 2a72 5a3c 5495 11bc
00000210: 22ef c0bd 2343 2c3c 90f1 523d c9c5 07be
00000220: 965f 0b3e 5dc3 9cbc e212 3e3e 1d6e a73d
00000230: b633 25be bf3b 313d 3d32 ee3d 08b0 99bd
00000240: dc15 f73c d48a 79bc ff92 d0bd b84c 5d3d
00000250: b172 14be 3583 cabd 9f17 eb3d 1e3e d8bc
00000260: a82e df3d 3800 53bc 8c16 543c 774b 1d3e
00000270: 453f a3bd 3e53 713c 3f72 6f3d 7c5f 98bd
00000280: 6e08 45be 333d f2bd ec9e ee3d 0cf1 87bd
00000290: e3f2 a7bd a03c 3f3e 9e73 4cbe 6c21 b73d
000002a0: 379a 1bbe 6f2f 893d 5f58 25be ca1d 44bd
000002b0: 702d de3d 8490 0cbe 568a a73d 3f3d e23d
000002c0: 91a8 01bd 6dc1 03be 7e76 ebbd 1079 fabd
000002d0: d73f eebd 63b2 0cbd fc5a 7ebd 6255 6dbd
000002e0: 9dcd 0dbe b694 86bc cd29 3dbd 6cfb 05be
000002f0: 2b8a 6cbd 7732 273e bd70 a5bd 3c0d 4f3d
00000300: 168a cf3d 7e8c 22bd 2fce bebd 0656 983d
00000310: ee82 51bd 2fb6 bdbd b9f5 12be 9087 31be
00000320: 07de 363d c80a 913c 6044 31be 8882 313d
00000330: a887 2d3d 3fab 27be 3544 2ebe cd73 a1bc
00000340: 155d c6bd 5abe dcbd c5e2 ad3d b44f 0fbe
00000350: e4fb 0c3e 7f8c 0d3e df27 ff3d 451e eb3d
00000360: 6d14 70bd 08a2 acbd 0194 213d 2dab 1cbe
00000370: c7be b8bd 61ae 87bc d4e1 0c3e a028 2f3e
00000380: 7626 e9bd 246f dcbd bc9e 02bb 22e8 1b3e
00000390: b444 0e3e 0bf0 3abe f100 82bc eff1 f8bd
000003a0: f67d d53d b006 17be 4c07 ff3c 5572 463d
000003b0: 4db0 e23d e000 a53c 0190 ac3c 3475 a7bc
000003c0: 7b3f 16be a957 eb3d 49b5 083e adfa eb3d
000003d0: 716d 9fbd 47c5 f7bd 0b42 033d b037 a83d
000003e0: eabd e63d 9d6a d6bd 87c0 813d 591b 0d3e
000003f0: 805a b6bd 0549 223e 045d 5a3d 0f0a 233e

bias_ih_l0 f4 [128]
-0.14579776 0.032850582 -0.018712934 0.07754539 -0.10396968 0.051228296 -0.062521175 -0.06386241
0.12689814 -0.116733834 -0.060539905 0.16322386 -0.075525425 0.04275138 -0.13337928 -0.14043109
-0.12186992 0.15740979 -0.023505813 -0.08975628 -0.12562671 -0.16432768 0.12649402 0.1623446
-0.092905365 0.16699173 0.05921064 0.017235858 -0.10700195 -0.12535803 -0.14251797 0.13911541
-0.16315387 -0.0975512 -0.05264223 -0.0778883 0.006495875 -0.04453789 0.0121205775 0.15224668
-0.14335227 0.07546798 0.013935118 0.15552188 0.060413342 -0.071359865 -0.08100477 -0.15117279
0.07261021 -0.027475659 0.06050795 -0.0012416482 0.08522504 -0.12639065 -0.11269872 0.04082233
0.07831172 -0.05051081 0.19768938 -0.042302884 0.11165011 -0.008579933 -0.080851965 0.07494663
-0.11978562 0.090457715 0.019976549 -0.12725167 -0.08108589 0.075434655 -0.14759208 0.06403837
-0.10742469 -0.048422962 0.10323304 -0.1955837 -0.015953202 0.09204142 0.08131737 -0.039949533
0.18266062 0.028289197 0.11544937 0.05707385 0.1599165 0.08593574 0.14558583 -0.07100262
0.0875334 0.122259505 -0.17834799 -0.002038737 0.06107756 -0.08548539 -0.032173634 -0.14101551
-0.005496804 0.17450552 0.124495655 -0.13604715 -0.041885816 0.12294359 0.1156489 -0.087046504
-0.11655339 -0.107021645 -0.030727342 0.18938117 0.0011911725 0.102762334 -0.008723704 0.17204855
-0.14804187 0.015097827 -0.1191171 -0.1634213 0.05251065 0.14973025 -0.115659624 -0.075177744
-0.16777927 0.010921455 -0.051852256 0.025196387 0.18139647 0.10350446 0.037282407 -0.083524585
00000000: 024c 15be 558e 063d de4b 99bc 1ed0 9e3d
00000010: 0eee d4bd c3d4 513d 1a0b 80bd 4cca 82bd
00000020: 96f1 013e 2612 efbd b1f8 77bd 2824 273e
00000030: 13ad 9abd 121c 2f3d 9494 08be 2bcd 0fbe
00000040: f096 f9bd 0830 213e 438f c0bc 24d2 b7bd
00000050: 4aa4 00be 8445 28be a687 013e aa3d 263e
00000060: 2b45 bebd e1ff 2a3e db86 723d 3732 8d3c
00000070: d723 dbbd db5d 00be 3bf0 11be 4574 0e3e
00000080: cf11 27be ecc8 c7bd 619f 57bd e783 9fbd
00000090: 59db d43b 5d6d 36bd 6395 463c 8ee6 1b3e
000000a0: f0ca 12be f58e 9a3d 1f50 643c 2141 1f3e
000000b0: fb73 773d 1f25 92bd d4e5 a5bd 0acd 1abe
000000c0: a9b4 943d a214 e1bc 2fd7 773d cdbe a2ba
000000d0: 778a ae3d 8d6c 01be 96ce e6bd 5135 273d
000000e0: e561 a03d 6ce4 4ebd 166f 4a3e ca45 2dbd
000000f0: d0a8 e43d d992 0cbc b795 a5bd 9e7d 993d
00000100: 2a52 f5bd e541 b93d dca5 a33c 434e 02be
00000110: 5c10 a6bd 7c7d 9a3d 6122 17be 8d26 833d
00000120: 7a01 dcbd 2857 46bd d86b d33d 1847 48be
00000130: 4ab0 82bc 3680 bc3d b989 a63d 1fa2 23bd
00000140: 630b 3b3e bfbe e73c b870 ec3d 45c6 693d
00000150: 27c1 233e 14ff af3d 7414 153e d269 91bd
00000160: b644 b33d 3163 fa3d dba0 36be 559c 05bb
00000170: 772c 7a3d f712 afbd 80c8 03bd 5f66 10be
00000180: 891e b4bb 93b1 323e 94f7 fe3d f24f 0bbe
00000190: 7690 2bbd d9c9 fb3d 55d9 ec3d 7045 b2bd
000001a0: 8bb3 eebd 2a2e dbbd e8b7 fbbc 23ed 413e
000001b0: 1e21 9c3a 0f75 d23d deed 0ebc 7f2d 303e
000001c0: 4a98 17be e05c 773c abf3 f3bd ea57 27be
000001d0: 6815 573d e352 193e f4de ecbd caf6 99bd
000001e0: 54ce 2bbe e7ef 323c 0863 54bd a768 ce3c
000001f0: ffbf 393e 25fa d33d 70b5 183d f00e abbd

bias_hh_l0 f4 [128]
-0.06335204 0.0885595 -0.031842753 0.079313174 0.19865757 -0.09622317 0.09894743 -0.0634651
-0.1960058 -0.15979967 -0.20521514 -0.013726969 -0.15451151 -0.08645729 0.10250963 0.08439086
0.1285307 -0.14342962 0.09916982 0.21586701 -0.02954399 -0.11319732 -0.12543353 0.031597674
-0.13122979 0.024552051 -0.04542951 -0.09567593 -0.03153183 0.06793332 0.118617095 -0.10439077
-0.11471435 0.1319846 0.18976066 -0.025249751 -0.05657499 0.023304012 -0.021930477 -0.06515026
-0.18907928 0.12762938 -0.042399663 0.2343596 0.09542356 0.07779286 0.14090444 0.16786885
0.057102997 0.17064504 0.09315668 -0.15157159 0.059287332 0.0035383913 0.08646377 -0.042582795
0.017367164 0.049448177 0.21747676 0.006394717 0.1280452 -0.062216267 -0.074363686 0.012577566
-0.063252814 -0.008674175 0.018184025 -0.04675392 0.002042337 -0.043936353 0.10048511 -0.058669444
-0.19347757 0.17882083 0.14705932 0.0543433 -0.07769399 -0.04242568 0.15647104 -0.08716681
-0.022108661 -0.067905955 0.13800138 -0.12269485 -0.05647634 0.08852875 -0.07377003 -0.14926206
0.20730384 0.021972505 -0.083392575 0.04442972 0.013227481 0.0755949 -0.040203396 0.04567067
0.1546108 -0.10943375 0.08621336 0.0008864808 -0.028795455 0.039446354 0.08046616 -0.0038333347
0.17824109 -0.17400922 -0.038809627 0.20839918 -0.08941615 -0.06485633 -0.03623729 -0.08021982
-0.056935962 0.11555379 0.1284354 -0.071452565 0.011977693 -0.11545661 -0.16996169 -0.09865604
0.15629171 -0.006458409 0.0639768 0.16971335 0.08728466 0.17789182 -0.09993281 0.084085144
00000000: b7be 81bd af5e b53d 8c6d 02bd f26e a23d
00000010: e46c 4b3e a710 c5bd f3a4 ca3d fef9 81bd
00000020: bfb5 48be 86a2 23be eb23 52be 15e7 60bc
00000030: 4438 1ebe 8510 b1bd 92f0 d13d 1dd5 ac3d
00000040: 8d9d 033e 37df 12be 8c19 cb3d 3e0c 5d3e
00000050: 3d06 f2bc ffd3 e7bd a671 00be 906c 013d
00000060: 1a61 06be 6221 c93c 4b14 3abd bef1 c3bd
00000070: 8527 01bd a020 8b3d 85ed f23d d4ca d5bd
00000080: 5bef eabd f926 073e 9e50 423e 91d8 cebc
00000090: 2dbb 67bd 0ee8 be3c 8ba7 b3bc 806d 85bd
000000a0: 009e 41be 47b1 023e 45ab 2dbd f7fb 6f3e
000000b0: 6d6d c33d dd51 9f3d 4149 103e d0e5 2b3e
000000c0: d5e4 693d 93bd 2e3e eec8 be3d 9535 1bbe
000000d0: 46d7 723d 5be4 673b eb13 b13d 4c6b 2ebd
000000e0: 9545 8e3c 2c8a 4a3d 3ab2 5e3e c68a d13b
000000f0: 481e 033e 7cd6 7ebd fd4b 98bd 2312 4e3c
00000100: b18a 81bd 201e 0ebc aaf6 943c 0a81 3fbd
00000110: bbd8 053b 9bf6 33bd 23cb cd3d 5f4f 70bd
00000120: fc1e 46be cf1c 373e b896 163e 1597 5e3d
00000130: 071e 9fbd 8dc6 2dbd f239 203e 8384 b2bd
00000140: 391d b5bc 4712 8bbd 3c50 0d3e 7047 fbbd
00000150: bc53 67bd 904e b53d be14 97bd 27d8 18be
00000160: 7547 543e afff b33c bac9 aabd f0fb 353d
00000170: 14b8 583c 80d1 9a3d 51ac 24bd 2b11 3b3d
00000180: 4b52 1e3e cd1e e0bd a190 b03d b862 683a
00000190: 72e4 ebbc 8092 213d 71cb a43d af38 7bbb
000001a0: d584 363e 792f 32be d8f6 1ebd 9866 553e
000001b0: d01f b7bd 65d3 84bd 8d6d 14bd 4a4a a4bd
000001c0: af35 69bd 77a7 ec3d 9284 033e b955 92bd
000001d0: 163e 443c 8474 ecbd 700a 2ebe 2e0c cabd
000001e0: ef0a 203e 10a1 d3bb 4506 833d 56c9 2d3e
000001f0: 4dc2 b23d 4629 363e 93a9 ccbd d534 ac3d

weight_ih_l0 f4 [128, 32]
-0.030422186 -0.15368283 -0.16588485 -0.06641279 0.16238901 -0.06629943 -0.09443829 -0.030988727
0.121624485 -0.1365786 -0.14321661 0.11133988 -0.11766285 -0.08530461 -0.08309193 -0.08777012
-0.18888178 -0.032711618 -0.14844431 -0.024564544 -0.021880444 0.052164234 0.059715603 -0.08916902
0.07682859 0.035287924 -0.14648001 -0.0387566 0.053682927 0.07664285 0.015308837 0.13268967
0.19072838 -0.13592118 0.01760809 0.15425704 0.06579653 0.16264686 0.011628335 -0.008208749
-0.0105615165 0.021882152 0.1767575 -0.006971772 0.016261261 -0.15150772 0.101351775 0.043362863
0.08086773 -0.136665 -0.15119967 -0.13770632 0.02536341 0.07408214 0.11215072 0.033770207
-0.107184194 0.050207198 -0.17305261 0.010688347 0.06507816 -0.15245657 0.08797704 -0.08671938
0.094673455 0.051474087 0.16946866 0.26923123 -0.16630554 0.15918492 -0.09638125 0.15071733
-0.17962445 -0.16386604 0.0048871064 -0.074519485 -0.14342196 0.10873339 -0.13515909 0.2336184
-0.07098049 0.18702689 -0.022768468 -0.15531223 0.17978127 0.10614426 -0.17803352 0.006062381
-0.2482026 -0.012405894 0.16596942 -0.15506093 0.044518594 0.09576553 -0.12214101 0.06608142
-0.10968708 -0.1508883 -0.08199185 -0.15875995 0.20508385 0.046894882 0.03365944 -0.2007881
0.16493656 0.09533101 -0.26891965 -0.14446579 0.04877382 -0.022674715 0.13335152 -0.16202281
-0.067004934 0.0024155967 0.0057102074 0.092065886 -0.1419754 0.08754212 0.12693049 0.11419277
-0.07375428 -0.04564135 0.056063738 0.031656463 0.010391926 -0.03236143 0.13860725 -0.13190931
-0.15221857 -0.11464136 -0.14142734 0.015861066 -0.11105102 0.15414536 -0.08247673 -0.10895045
-0.07146388 -0.110538214 -0.1619597 0.06718307 0.07596797 0.019457813 -0.1124476 -0.06484253
-0.18061617 0.16347939 -0.08398821 -0.16269772 0.1580683 -0.1072528 -0.114787824 0.033763878
0.090312496 -0.17713346 -0.036234006 0.17087162 0.028850665 0.10849618 0.0054913457 -0.044866394
0.15060398 0.1741255 0.05992965 0.070748925 -0.0023856247 0.003271039 -0.060686838 -0.097274855
0.045689415 0.017894294 -0.08539735 0.10614059 -0.14528109 0.009774051 -0.12850718 -0.13265586
-0.14874576 -0.10843461 -0.07974259 0.18190956 -0.13936108 0.14971344 0.12390733 -0.070269786
0.031625103 -0.12313662 0.04012048 -0.17013004 -0.08656655 -0.09396649 0.06135326 0.11675567
-0.12959753 0.070552655 -0.13399671 0.16348557 0.16621946 -0.15319864 -0.15639111 0.12436189
0.020466905 -0.054520562 -0.08250472 -0.15012427 -0.043535043 -0.12714979 0.14000186 0.0899895
-0.07549954 0.08084549 0.08411221 0.03881172 0.07648244 -0.05668404 -0.036485314 -0.16180229
-0.12759551 0.03743073 0.06555119 0.01188687 -0.06917314 -0.15963376 0.06945718 -0.0815265
0.10925392 -0.059906863 -0.040533185 -0.15877125 -0.08842539 -0.13571782 -0.052907508 -0.029130597
-0.09796835 0.029564492 0.14876848 -0.09770658 0.0070821717 -0.01973145 0.10471385 0.16629134
0.06262004 -0.15816261 0.031391006 0.09319893 0.14962505 -0.055388432 0.09768559 0.12878396
0.1149216 -0.02886349 -0.0009890076 0.10587915 0.14693199 0.015790572 -0.0030862486 0.0068321507
00000000: f337 f9bc 085f 1dbe b8dd 29be 6e03 88bd
00000010: 4e49 263e ffc7 87bd dd68 c1bd 12dc fdbc
00000020: 4216 f93d 43db 0bbe 60a7 12be 2a06 e43d
00000030: 38f9 f0bd 2fb4 aebd 1a2c aabd d2c0 b3bd
00000040: 3a6a 41be 9efc 05bd c901 18be 953b c9bc
00000050: 9e3e b3bc 2aaa 553d 5998 743d 3f9e b6bd
00000060: 4f58 9d3d 128a 103d dbfe 15be 3ebf 1ebd
00000070: a1e2 5b3d edf6 9c3d ebd1 7a3c cddf 073e
00000080: 4d4e 433e ec2e 0bbe d73e 903c 8ff5 1d3e
00000090: 55c0 863d e68c 263e c684 3e3c fd7d 06bc
000000a0: 360a 2dbc 3342 b33c ebff 343e 7673 e4bb
000000b0: 5636 853c d724 1bbe 8591 cf3d 429d 313d
000000c0: fb9d a53d e9f1 0bbe 16d4 1abe e302 0dbe
000000d0: edc6 cf3c 61b8 973d 47af e53d a152 0a3d
000000e0: 6383 dbbd 10a6 4d3d b434 31be 2d1e 2f3c
000000f0: b347 853d 931d 1cbe 4e2d b43d ee99 b1bd
00000100: 28e4 c13d 7ed6 523d 3189 2d3e add8 893e
00000110: 004c 2abe 5f01 233e 8863 c5bd a555 1a3e
00000120: 79ef 37be 80cc 27be 0524 a03b ac9d 98bd
00000130: 35dd 12be 9daf de3d 2567 0abe a939 6f3e
00000140: 385e 91bd fa83 3f3e f084 babc 2b0a 1fbe
00000150: 9518 383e 2962 d93d 6b4e 36be f0a6 c63b
00000160: d328 7ebe 1742 4bbc e3f3 293e 4bc8 1ebe
00000170: 2159 363d b820 c43d 1125 fabd b255 873d
00000180: 9fa3 e0bd 7682 1abe 58eb a7bd f891 22be
00000190: 8001 523e d914 403d 7bde 093d 659b 4dbe
000001a0: 21e5 283e e83c c33d d6af 89be d7ee 13be
000001b0: 0fc7 473d 53c0 b9bc 4d8d 083e 4fe9 25be
000001c0: e239 89bd fd4e 1e3b b11c bb3b 0a8d bc3d
000001d0: 0062 11be 4849 b33d 11fa 013e e6dd e93d
000001e0: 7c0c 97bd 6df2 3abd 17a3 653d 35aa 013d
000001f0: e642 2a3c 6b8d 04bd 0fef 0d3e 3c13 07be
00000200: 2fdf 1bbe 17c9 eabd 54d2 10be 11ef 813c
00000210: b86e e3bd 48d8 1d3e 8fe9 a8bd 6a21 dfbd
00000220: a85b 92bd dc61 e2bd c3d8 25be 4797 893d
00000230: 1895 9b3d fe65 9f3c ed4a e6bd 29cc 84bd
00000240: 72f3 38be 2467 273e 0302 acbd 3b9a 26be
00000250: a8dc 213e 5ba7 dbbd e115 ebbd fe4b 0a3d
00000260: c2f5 b83d 7962 35be 1c6a 14bd f8f8 2e3e
00000270: 3b58 ec3c 3f33 de3d bff0 b33b d3c5 37bd
00000280: ee37 1a3e f44d 323e cb78 753d d0e4 903d
00000290: 2458 1cbb ee5e 563b c392 78bd 0a38 c7bd
000002a0: d324 3b3d 0e97 923c cee4 aebd 3d60 d93d
000002b0: 91c4 14be 5723 203c 6397 03be f0d6 07be
000002c0: cf50 18be f712 debd 1550 a3bd 8046 3a3e
000002d0: acb4 0ebe 7b4e 193e 20c3 fd3d 9be9 8fbd
000002e0: 5389 013d 0d2f fcbd 5f55 243d 9236 2ebe
000002f0: ce49 b1bd 8171 c0bd 8e4d 7b3d 991d ef3d
00000300: 37b5 04be e97d 903d 6f36 09be c368 273e
00000310: 6f35 2a3e 1be0 1cbe fe24 20be 72b1 fe3d
00000320: 36aa a73c f450 5fbd 3cf8 a8bd 2dba 19be
00000330: cd51 32bd 8e33 02be a65c 0f3e 6a4c b83d
00000340: 819f 9abd 5292 a53d 0643 ac3d 0af9 1e3d
00000350: d3a2 9c3d 862d 68bd a071 15bd 80af 25be
00000360: 66a8 02be f750 193d b43f 863d 25c1 423c
00000370: a6aa 8dbd 0877 23be 913f 8e3d 5ef7 a6bd
00000380: 85c0 df3d e660 75bd 2006 26bd ee94 22be
00000390: 5f18 b5bd 9df9 0abe 8bb5 58bd 4aa3 eebc
000003a0: a1a3 c8bd 3c31 f23c c456 183e 631a c8bd
000003b0: 9011 e83b daa3 a1bc 3774 d63d 4748 2a3e
000003c0: ef3e 803d 61f5 21be db93 003d 15df be3d
000003d0: 4f37 193e fbde 62bd 620f c83d f1df 033e
000003e0: 045c eb3d 2073 ecbc 97a1 81ba 2bd7 d83d
000003f0: 5775 163e 3b5b 813c a942 4abb 3ce0 df3b

weight_hh_l0 f4 [128, 32]
-0.06282597 0.09939149 0.14174348 -0.13139732 0.021242568 0.12066906 0.07133266 -0.04747843
-0.04762818 -0.047656737 -0.13413253 -0.06918835 -0.13680653 -0.10344745 -0.040402815 -0.1609128
0.00048310458 0.055615567 0.09574049 0.1725263 0.020941926 -0.049738318 0.09086884 0.051547494
0.016959326 -0.12213045 -0.081289224 0.19949046 -0.030350674 0.08629044 -0.18557973 -0.054164458
-0.16757865 -0.09206996 0.15333807 0.18380591 0.15539698 0.077186376 -0.07190544 0.10460453
-0.06491977 0.05625916 0.13780022 -0.13815689 0.00496161 -0.16436611 0.1332588 0.049008608
0.115560874 0.12877521 -0.19181843 0.11805165 0.13303162 -0.009234965 -0.07927017 -0.13334358
0.08070272 0.18985789 0.058176164 -0.103368275 -0.03480849 -0.089728795 0.12482631 -0.031514987
0.053223085 0.07878708 0.1320684 -0.042433344 0.20478144 -0.12531942 -0.08812473 -0.17409566
0.17852709 -0.1367055 0.07414051 0.1164739 0.007321146 0.1608888 -0.14090225 -0.11918963
-0.086690344 0.017271748 -0.13096964 0.0038482817 -0.18050916 -0.0881651 0.10246536 -0.0080372915
-0.050641347 -0.08814098 0.019369217 0.097210936 0.15295649 -0.00405906 0.039088443 -0.105681464
-0.05552398 -0.046725407 0.10698118 0.03175643 0.098069705 0.14805372 0.10440824 0.15976359
-0.08239438 0.13148504 0.0837381 -0.13303132 -0.11522814 -0.1634161 -0.029894965 0.1521282
0.08893743 -0.0919613 -0.14506792 -0.018131986 -0.035602674 -0.10478147 -0.13395247 0.082673386
0.10069003 0.15928057 0.18547222 -0.101562224 0.096236795 0.08896565 -0.12128937 0.12963577
0.12370419 0.07634484 0.06374793 -0.115701854 0.018807374 0.055553142 -0.11838697 0.17488365
0.07585805 0.11876501 -0.025219422 0.056935623 0.17251405 0.1854158 0.06071534 -0.12183144
-0.16506952 0.16458169 -0.018845513 0.15231034 0.1447956 -0.14531788 0.11770331 -0.030958787
0.1408298 -0.0010782037 -0.09492547 -0.014967774 0.16107568 -0.12701924 0.06427891 -0.021240119
0.020293556 -0.08435191 -0.07039753 -0.08955798 -0.089065075 0.07235132 -0.09068753 0.067131855
-0.10132222 0.0005471362 -0.099344574 -0.1748324 0.13445476 0.023656465 -0.006211792 0.04827691
-0.08545219 -0.21086247 -0.06288712 0.12407437 0.14445409 -0.009672968 -0.09496641 -0.07487026
-0.06548755 -0.15409012 -0.14332645 0.07528932 -0.13056146 0.016069843 0.04884594 0.1397681
0.001136303 0.11258768 -0.04721945 0.0396121 -0.08871177 0.06481018 -0.1394163 -0.06252346
-0.13023983 0.1021765 0.053856608 0.14282645 0.1112289 -0.06788972 -0.13198262 0.009422899
-0.02923384 0.00025904746 0.13312392 -0.01319991 -0.09134161 0.03472225 -0.09289134 0.03193538
-0.13034692 0.045976985 -0.06555045 0.020382347 -0.18867375 -0.0536307 0.0459716 0.1368318
-0.042752385 0.039350685 -0.105255514 0.10342203 -0.01295656 -0.017835619 -0.016151 0.02598268
0.16093162 0.12560967 0.084580705 0.018613076 -0.038997497 -0.12127914 -0.14715716 -0.02450455
0.071666256 0.06055254 0.07666416 0.089383475 -0.04915134 -0.13658285 0.126059 -0.06946152
-0.06088328 0.035259366 0.06632235 0.096458465 0.17398651 0.012940233 -0.06960128 -0.10694874
00000000: e7aa 80bd c48d cb3d 3425 113e 058d 06be
00000010: e504 ae3c 5721 f73d dc16 923d be78 42bd
00000020: c415 43bd b633 43bd 0a5a 09be 9fb2 8dbd
00000030: 0317 0cbe 42dc d3bd 6c7d 25bd 53c6 24be
00000040: 3349 fd39 26cd 633d 9713 c43d bcaa 303e
00000050: 678e ab3c 68ba 4bbd 7119 ba3d 7723 533d
00000060: 49ee 8a3c 881f fabd f77a a6bd 3a47 4c3e
00000070: faa1 f8bc 0bb9 b03d 9d08 3ebe 8ddb 5dbd
00000080: bd99 2bbe 2d8f bcbd a804 1d3e 9e37 3c3e
00000090: 6320 1f3e e413 9e3d 2943 93bd e63a d63d
000000a0: a8f4 84bd 0170 663d 801b 0d3e 0079 0dbe
000000b0: 0095 a23b 974f 28be ff74 083e 40bd 483d
000000c0: 2eab ec3d a6dd 033e 0d6c 44be 10c5 f13d
000000d0: 7139 083e 404e 17bc 6658 a2bd 388b 08be
000000e0: 7847 a53d 1b6a 423e 214a 6e3d bfb2 d3bd
000000f0: 5993 0ebd bbc3 b7bd f0a4 ff3d dc15 01bd
00000100: 7300 5a3d 1f5b a13d f03c 073e 96ce 2dbd
00000110: 3ab2 513e bc53 00be bd7a b4bd 2246 32be
00000120: cecf 363e 87fc 0bbe fbd6 973d de89 ee3d
00000130: 39e6 ef3b 09c0 243e ae48 10be b119 f4bd
00000140: b58a b1bd 7b7d 8d3c e81c 06be 7433 7c3b
00000150: 65d7 38be e78f b4bd 5cd9 d13d d8ae 03bc
00000160: 4d6d 4fbd 4283 b4bd 31ac 9e3c 8716 c73d
00000170: a0a0 1c3e dd01 85bb 341b 203d 866f d8bd
00000180: 1d6d 63bd 2463 3fbd f318 db3d 0813 023d
00000190: c5d8 c83d 659b 173e fdd3 d53d 1199 233e
000001a0: 62be a8bd 04a4 063e e27e ab3d 5d39 08be
000001b0: bbfc ebbd 8d56 27be 49e6 f4bc 7fc7 1b3e
000001c0: d424 b63d 3556 bcbd af8c 14be 8889 94bc
000001d0: 1cd4 11bd ab97 d6bd d62a 09be aa50 a93d
000001e0: 9336 ce3d 721a 233e 6eec 3d3e dbff cfbd
000001f0: cc17 c53d 9f33 b63d 9066 f8bd 3dbf 043e
00000200: 9f58 fd3d af5a 9c3d 468e 823d 18f5 ecbd
00000210: ec11 9a3c b18b 633d de74 f2bd b314 333e
00000220: 775b 9b3d 123b f33d f698 cebc 5435 693d
00000230: 86a7 303e a4dd 3d3e a6b0 783d c382 f9bd
00000240: fc07 29be 1a88 283e e861 9abc 3ef7 1b3e
00000250: 4c45 143e 36ce 14be 6f0e f13d 489d fdbc
00000260: b035 103e 8352 8dba 4968 c2bd 653b 75bc
00000270: 06f1 243e 5511 02be a9a4 833d c2ff adbc
00000280: ac3e a63c b2c0 acbd 952c 90bd 2d6a b7bd
00000290: c067 b6bd ee2c 943d 62ba b9bd 6d7c 893d
000002a0: 0682 cfbd b06d 0f3a 2b75 cbbd 4407 33be
000002b0: 82ae 093e 34cb c13c 4a8c cbbb 02be 453d
000002c0: 8f01 afbd 55ec 57be f6ca 80bd b41a fe3d
000002d0: c6eb 133e 5e7b 1ebc c07d c2bd 9455 99bd
000002e0: 561e 86bd cdc9 1dbe 2bc4 12be 4931 9a3d
000002f0: e7b1 05be e7a4 833c ae12 483d 5e1f 0f3e
00000300: 00f0 943a 5f94 e63d 2f69 41bd 4c40 223d
00000310: 84ae b5bd 33bb 843d 26c3 0ebe 4d0c 80bd
00000320: 975d 05be ea41 d13d bf98 5c3d 1941 123e
00000330: facb e33d c409 8bbd 7426 07be 8162 1a3c
00000340: ce7b efbc c3d0 8739 a351 083e 6f44 58bc
00000350: 4f11 bbbd eb38 0e3d d13d bebd acce 023d
00000360: aa79 05be 5d52 3c3d 503f 86bd e1f8 a63c
00000370: b133 41be ddab 5bbd b74c 3c3d a31d 0c3e
00000380: 201d 2fbd 2f2e 213d 3490 d7bd eece d33d
00000390: c047 54bc 011c 92bc 1a4f 84bc a1d9 d43c
000003a0: 42cb 243e d29f 003e a638 ad3d 737a 983c
000003b0: d7bb 1fbd 3361 f8bd 5eb0 16be c4bd c8bc
000003c0: c2c5 923d f105 783d 1902 9d3d af0e b73d
000003d0: ea52 49bd 60dc 0bbe 9c15 013e d741 8ebd
000003e0: bf60 79bd 206c 103d 03d4 873d 048c c53d
000003f0: 8529 323e 4503 543c 1e8b 8ebd f107 dbbd

bias_ih_l0 f4 [128]
0.040627316 -0.09308986 -0.111089826 -0.02627336 0.05258115 -0.16385561 0.18734244 0.004666571
-0.028647544 -0.17908084 -0.097203106 0.03236253 -0.14145656 -0.041568734 0.07256574 -0.016149452
-0.1820572 0.13931558 0.021844529 -0.022353474 0.08507608 -0.11080306 -0.13380153 0.056425318
-0.060238227 -0.0048937555 0.07291339 0.008609235 -0.14125444 0.08855742 -0.15870592 -0.104491256
-0.1842479 -0.12172036 -0.15073496 -0.13407817 0.005536636 0.057493944 0.043211028 -0.118995875
-0.10100422 -0.036274645 -0.076660864 0.0682341 0.0032519968 -0.17322895 -0.039786197 0.09596336
0.10631203 0.11673665 -0.056228142 -0.057606585 -0.06963898 -0.06592294 0.008263687 -0.14737023
0.017715368 0.0103057455 0.11004799 0.10629253 -0.019417575 0.073031045 -0.097680315 -0.041874778
-0.13011132 0.19708708 0.06482984 -0.0040940335 -0.003879753 0.1386348 -0.013303391 0.019422008
0.13679658 0.030280394 -0.10435043 -0.023355538 -0.14480509 -0.059093494 0.044577405 0.1792558
0.11860952 -0.009680298 -0.08925991 -0.07129717 -0.04712559 0.16410874 -0.023358533 0.0994001
0.17383948 0.054026708 -0.119034715 -0.13589953 0.13261774 -0.089201875 0.14975841 0.00989317
-0.097320475 -0.16226014 -0.063702054 -0.24480835 -0.032432735 0.09392049 -0.19466956 -0.10909428
-0.03241882 -0.08209825 -0.015857242 -0.10309579 0.058352727 -0.13826866 -0.12758614 0.051658645
0.12018526 -0.103116184 -0.02363538 0.088237226 -0.057019267 -0.046276227 -0.048583988 0.08979866
0.189246 0.055396084 0.021812093 -0.02725448 0.090884365 0.029257772 -0.1364722 0.06377861
00000000: d468 263d e6a5 bebd 1083 e3bd 3b3b d7bc
00000010: 555f 573d c4c9 27be b2d6 3f3e 09ea 983b
00000020: 41ae eabc f860 37be 6c12 c7bd 928e 043d
00000030: fdd9 10be fa43 2abd 599d 943d db4b 84bc
00000040: 346d 3abe bea8 0e3e 4cf3 b23c a21e b7bc
00000050: 5e3c ae3d b7ec e2bd 4503 09be 3c1e 673d
00000060: 5cbc 76bd cc5b a0bb 9e53 953d c00d 0d3c
00000070: 01a5 10be 985d b53d ce83 22be 83ff d5bd
00000080: 7bab 3cbe 8648 f9bd 445a 1abe ca4b 09be
00000090: ab6c b53b c57e 6b3d 0cfe 303d 1cb4 f3bd
000000a0: 4ddb cebd b994 14bd 5f00 9dbd 52be 8b3d
000000b0: 741f 553b ee62 31be daf6 22bd 7088 c43d
000000c0: 1fba d93d a013 ef3d 7b4f 66bd e2f4 6bbd
000000d0: e29e 8ebd 9b02 87bd 6a64 073c 39e8 16be
000000e0: d21f 913c 6ed9 283c d760 e13d e6af d93d
000000f0: 9b11 9fbc 4d91 953d 9e0c c8bd e384 2bbd
00000100: e73b 05be 32d1 493e 82c5 843d 3e27 86bb
00000110: 7443 7ebb 48f6 0d3e 77f6 59bc e71a 9f3c
00000120: 6714 0c3e 970e f83c aeb5 d5bd 1d54 bfbc
00000130: c947 14be 050c 72bd cc96 363d d58e 373e
00000140: 8ce9 f23d 1d9a 1ebc e6cd b6bd 4004 92bd
00000150: c306 41bd 1f0c 283e 655a bfbc 4892 cb3d
00000160: fa02 323e 1c4b 5d3d 79c8 f3bd 3f29 0bbe
00000170: f2cc 073e 79af b6bd 455a 193e f616 223c
00000180: f54f c7bd 8627 26be 3976 82bd 0aaf 7abe
00000190: 30d8 04bd 6359 c03d 7557 47be d26c dfbd
000001a0: 99c9 04bd 2123 a8bd 0ce7 81bc e323 d3bd
000001b0: 4503 6f3d 4d96 0dbe f1a5 02be 0498 533d
000001c0: b123 f63d 942e d3bd fc9e c1bc b8b5 b43d
000001d0: 098d 69bd 248c 3dbd 0100 47bd 5ce8 b73d
000001e0: b4c9 413e 01e7 623d 46af b23c ca44 dfbc
000001f0: 9521 ba3d ffad ef3c 5ebf 0bbe 5c9e 823d

bias_hh_l0 f4 [128]
-0.07749637 -0.04535282 0.12812208 0.11356782 0.15227716 0.049215384 0.15383801 -0.009990843
-0.03258213 0.16329393 0.11478315 -0.1807514 0.070326805 0.11842982 0.18560603 0.11073579
-0.16910543 -0.11733151 0.16526702 0.1435528 -0.024646832 0.023140727 0.013306501 0.106919326
0.013170078 0.1989365 0.05212541 0.15164414 0.08522282 -0.15071817 0.08216308 -0.12662153
0.052353308 -0.039803002 -0.15013136 0.082267165 0.10787732 -0.0667506 -0.106703095 -0.078086734
-0.033441156 0.15782468 -0.006685544 -0.16097164 0.110811174 -0.108790174 -0.062557176 0.16000889
0.0787143 0.005140064 0.050712086 0.10444044 0.033410285 -0.09736118 -0.05476283 -0.011298556
0.03791593 -0.13980862 0.08747359 -0.006989411 -0.15823568 0.17985916 0.11287676 0.09571277
0.062430777 0.0956912 -0.11476934 0.14932476 -0.013746479 -0.14303777 -0.14203271 0.1333067
-0.1440517 0.117984354 -0.021328952 0.1062221 -0.0030473752 0.07383853 0.02018958 0.15240641
-0.14891641 -0.039457995 -0.15487246 0.15926015 0.029523833 0.087222345 -0.13927162 -0.1193191
0.025729464 -0.061517388 0.12904875 0.078591146 0.105694175 -0.17441395 -0.016139273 -0.0760553
0.034152728 0.0039097923 -0.0048252596 -0.19367288 0.11804408 0.00017739533 -0.12767383 -0.030506058
-0.15788567 0.08521923 0.05789575 -0.06978629 0.12761451 0.16566078 0.14085558 -0.10910222
-0.03152767 -0.1490069 0.079366155 0.12200302 0.06426731 -0.054908432 0.14039667 0.12419713
0.09419126 -0.16115826 0.11271992 -0.062236294 0.053760383 0.12750983 -0.041536614 0.15589945
00000000: 6bb6 9ebd e1c3 39bd 6f32 033e 3f96 e83d
00000010: 8bee 1b3e 1296 493d b687 1d3e a2b0 23bc
00000020: d774 05bd 8636 273e 6e13 eb3d e516 39be
00000030: 8007 903d 558b f23d 820f 3e3e 72c9 e23d
00000040: f929 2dbe 814b f0bd c23b 293e 81ff 123e
00000050: 27e8 c9bc 9f91 bd3c 8303 5a3c 85f8 da3d
00000060: 50c7 573c 03b6 4b3e 7481 553d 9a48 1b3e
00000070: 4d89 ae3d dd55 1abe 1e45 a83d 13a9 01be
00000080: 6c70 563d 7908 23bd 09bc 19be b07b a83d
00000090: c9ee dc3d 8ab4 88bd 2787 dabd f0eb 9fbd
000000a0: 98f9 08bd cb9c 213e 6812 dbbb c0d5 24be
000000b0: f8f0 e23d 62cd debd fa1d 80bd 5fd9 233e
000000c0: f734 a13d fb6d a83b 7ab7 4f3d dfe4 d53d
000000d0: 39d9 083d 4c65 c7bd fd4e 60bd 941d 39bc
000000e0: bc4d 1b3d fe29 0fbe 5b25 b33d 6e07 e5bb
000000f0: 8908 22be 002d 383e ee2b e73d 0f05 c43d
00000100: 6ab7 7f3d bff9 c33d 300c ebbd 97e8 183e
00000110: e938 61bc 7e78 12be 0671 11be 8d81 083e
00000120: 4a82 13be c8a1 f13d 0eba aebc f98a d93d
00000130: 79b6 47bb a838 973d 9e64 a53c 6d10 1c3e
00000140: 8b7d 18be b59e 21bd e396 1ebe 1815 233e
00000150: f7db f13c a1a1 b23d 389d 0ebe 935d f4bd
00000160: 99c6 d23c a8f9 7bbd 5b25 043e 65f4 a03d
00000170: 3076 d83d 9299 32be 8236 84bc e2c2 9bbd
00000180: bbe3 0b3d b71d 803b 361d 9ebb 2f52 46be
00000190: 18c1 f13d 3203 3a39 eebc 02be d7e7 f9bc
000001a0: c8ac 21be 6b87 ae3d 1824 6d3d 1dec 8ebd
000001b0: 61ad 023e fba2 293e 723c 103e fc70 dfbd
000001c0: 2823 01bd 4495 18be b98a a23d b8dc f93d
000001d0: 949e 833d aae7 60bd 25c4 0f3e 115b fe3d
000001e0: 59e7 c03d ac06 25be b4d9 e63d 7ceb 7ebd
000001f0: d933 5c3d f091 023e 4c22 2abd 1ba4 1f3e
